Model: "model"
_________________________________________________________________
 Layer (type)                Output Shape              Param #   
=================================================================
 input_1 (InputLayer)        [(None, 64, 128, 3)]      0         
                                                                 
 block1_conv1 (Conv2D)       (None, 64, 128, 64)       1792      
                                                                 
 block1_conv2 (Conv2D)       (None, 64, 128, 64)       36928     
                                                                 
 block1_pool (MaxPooling2D)  (None, 32, 64, 64)        0         
                                                                 
 block2_conv1 (Conv2D)       (None, 32, 64, 128)       73856     
                                                                 
 block2_conv2 (Conv2D)       (None, 32, 64, 128)       147584    
                                                                 
 block2_pool (MaxPooling2D)  (None, 16, 32, 128)       0         
                                                                 
 block3_conv1 (Conv2D)       (None, 16, 32, 256)       295168    
                                                                 
 block3_conv2 (Conv2D)       (None, 16, 32, 256)       590080    
                                                                 
 block3_conv3 (Conv2D)       (None, 16, 32, 256)       590080    
                                                                 
 block3_pool (MaxPooling2D)  (None, 8, 16, 256)        0         
                                                                 
 block4_conv1 (Conv2D)       (None, 8, 16, 512)        1180160   
                                                                 
 block4_conv2 (Conv2D)       (None, 8, 16, 512)        2359808   
                                                                 
 block4_conv3 (Conv2D)       (None, 8, 16, 512)        2359808   
                                                                 
 block4_pool (MaxPooling2D)  (None, 4, 8, 512)         0         
                                                                 
 block5_conv1 (Conv2D)       (None, 4, 8, 512)         2359808   
                                                                 
 block5_conv2 (Conv2D)       (None, 4, 8, 512)         2359808   
                                                                 
 block5_conv3 (Conv2D)       (None, 4, 8, 512)         2359808   
                                                                 
 block5_pool (MaxPooling2D)  (None, 2, 4, 512)         0         
                                                                 
 global_average_pooling2d (G  (None, 512)              0         
 lobalAveragePooling2D)                                          
                                                                 
 flatten (Flatten)           (None, 512)               0         
                                                                 
 dense (Dense)               (None, 240)               123120    
                                                                 
 dense_1 (Dense)             (None, 15)                3615      
                                                                 
=================================================================
Total params: 14,841,423
Trainable params: 126,735
Non-trainable params: 14,714,688
_________________________________________________________________                      precision    recall  f1-score   support

              blouse       0.89      0.93      0.91       500
…
